…
2023-02-19 17:46:31.750972: I tensorflow/core/common_runtime/process_util.cc:146] Creating new thread pool with default inter op setting: 2. Tune using inter_op_parallelism_threads for best performance.
(622293, 10, 10, 4)
622293
(560097, 10, 10, 4)
560097
Model: "rotationsCutoff"
_________________________________________________________________
 Layer (type)                Output Shape              Param #   
=================================================================
 data (InputLayer)           [(None, 10, 10, 4)]       0         
                                                                 
 conv2d (Conv2D)             (None, 10, 10, 64)        2368      
                                                                 
 batch_normalization (BatchN  (None, 10, 10, 64)       256       
 ormalization)                                                   
                                                                 
 conv2d_1 (Conv2D)           (None, 10, 10, 128)       73856     
                                                                 
 batch_normalization_1 (Batc  (None, 10, 10, 128)      512       
 hNormalization)                                                 
                                                                 
 max_pooling2d (MaxPooling2D  (None, 5, 5, 128)        0         
 )                                                               
                                                                 
 conv2d_2 (Conv2D)           (None, 5, 5, 256)         295168    
                                                                 
 batch_normalization_2 (Batc  (None, 5, 5, 256)        1024      
 hNormalization)                                                 
                                                                 
 conv2d_3 (Conv2D)           (None, 5, 5, 512)         1180160   
                                                                 
 batch_normalization_3 (Batc  (None, 5, 5, 512)        2048      
 hNormalization)                                                 
                                                                 
 max_pooling2d_1 (MaxPooling  (None, 3, 3, 512)        0         
 2D)                                                             
                                                                 
 conv2d_4 (Conv2D)           (None, 3, 3, 512)         2359808   
                                                                 
 batch_normalization_4 (Batc  (None, 3, 3, 512)        2048      
 hNormalization)                                                 
                                                                 
 max_pooling2d_2 (MaxPooling  (None, 2, 2, 512)        0         
 2D)                                                             
                                                                 
 flatten (Flatten)           (None, 2048)              0         
                                                                 
 dense (Dense)               (None, 1024)              2098176   
                                                                 
 batch_normalization_5 (Batc  (None, 1024)             4096      
 hNormalization)                                                 
                                                                 
 dense_1 (Dense)             (None, 1)                 1025      
                                                                 
=================================================================
Total params: 6,020,545
Trainable params: 6,015,553
Non-trainable params: 4,992
_________________________________________________________________
2023-02-19 18:06:15.619954: I tensorflow/compiler/xla/stream_executor/cuda/cuda_dnn.cc:428] Loaded cuDNN version 8600
…
2023-02-20 10:45:24.333366: I tensorflow/core/common_runtime/process_util.cc:146] Creating new thread pool with default inter op setting: 2. Tune using inter_op_parallelism_threads for best performance.
(622293, 10, 10, 4)
622293
(560097, 10, 10, 4)
560097
Model: "rotationsCutoff"
_________________________________________________________________
 Layer (type)                Output Shape              Param #   
=================================================================
 data (InputLayer)           [(None, 10, 10, 4)]       0         
                                                                 
 conv2d (Conv2D)             (None, 10, 10, 64)        2368      
                                                                 
 average_pooling2d (AverageP  (None, 5, 5, 64)         0         
 ooling2D)                                                       
                                                                 
 conv2d_1 (Conv2D)           (None, 5, 5, 32)          18464     
                                                                 
 average_pooling2d_1 (Averag  (None, 2, 2, 32)         0         
 ePooling2D)                                                     
                                                                 
 conv2d_2 (Conv2D)           (None, 2, 2, 16)          4624      
                                                                 
 flatten (Flatten)           (None, 64)                0         
                                                                 
 dense (Dense)               (None, 256)               16640     
                                                                 
 dense_1 (Dense)             (None, 256)               65792     
                                                                 
 dense_2 (Dense)             (None, 256)               65792     
                                                                 
 dense_3 (Dense)             (None, 1)                 257       
                                                                 
=================================================================
Total params: 173,937
Trainable params: 173,937
Non-trainable params: 0
_________________________________________________________________
2023-02-20 11:04:42.650133: I tensorflow/compiler/xla/stream_executor/cuda/cuda_dnn.cc:428] Loaded cuDNN version 8600
2023-02-20 11:04:43.617852: I tensorflow/compiler/xla/service/service.cc:173] XLA service 0x7f5121efc1d0 initialized for platform CUDA (this does not guarantee that XLA will be used). Devices:
…
