…
2022-09-22 21:33:36.077690: W tensorflow/core/common_runtime/bfc_allocator.cc:272] Allocator (GPU_0_bfc) ran out of memory trying to allocate 1.21GiB with freed_by_count=0. The caller indicates that this is not a failure, but may mean that there could be performance gains if more memory were available.
Model: "rotations0"
_________________________________________________________________
Layer (type)                 Output Shape              Param #   
=================================================================
data (InputLayer)            [(None, 10, 10, 4)]       0         
_________________________________________________________________
conv2d (Conv2D)              (None, 10, 10, 64)        2368      
_________________________________________________________________
batch_normalization (BatchNo (None, 10, 10, 64)        256       
_________________________________________________________________
conv2d_1 (Conv2D)            (None, 10, 10, 128)       73856     
_________________________________________________________________
batch_normalization_1 (Batch (None, 10, 10, 128)       512       
_________________________________________________________________
max_pooling2d (MaxPooling2D) (None, 5, 5, 128)         0         
_________________________________________________________________
conv2d_2 (Conv2D)            (None, 5, 5, 256)         295168    
_________________________________________________________________
batch_normalization_2 (Batch (None, 5, 5, 256)         1024      
_________________________________________________________________
conv2d_3 (Conv2D)            (None, 5, 5, 512)         1180160   
_________________________________________________________________
batch_normalization_3 (Batch (None, 5, 5, 512)         2048      
_________________________________________________________________
max_pooling2d_1 (MaxPooling2 (None, 3, 3, 512)         0         
_________________________________________________________________
conv2d_4 (Conv2D)            (None, 3, 3, 512)         2359808   
_________________________________________________________________
batch_normalization_4 (Batch (None, 3, 3, 512)         2048      
_________________________________________________________________
max_pooling2d_2 (MaxPooling2 (None, 2, 2, 512)         0         
_________________________________________________________________
flatten (Flatten)            (None, 2048)              0         
_________________________________________________________________
dense (Dense)                (None, 1024)              2098176   
_________________________________________________________________
batch_normalization_5 (Batch (None, 1024)              4096      
_________________________________________________________________
dense_1 (Dense)              (None, 1)                 1025      
=================================================================
Total params: 6,020,545
Trainable params: 6,015,553
Non-trainable params: 4,992
_________________________________________________________________
Epoch 1/200

     1/179240 [..............................] - ETA: 276:32:21 - loss: 5.9898 - mae: 6.4898 - mse: 43.3972
…
